model/keypoint_classifier/keypoint_classifier.tflite (tflite, 6644 bytes, 6 tensors)

arith.constant f4 [6, 10]
00000000: 21cc 01bc dc2a d33d 62c9 fdbe 5dd9 653e
00000010: a73a 85bf d15a e53e 924b e13e db8a 343f
00000020: c761 17bf 0244 0f3f 3996 493f ac65 8f3e
00000030: 51fd 69bf cb0d 103e 24a6 2d3f bb85 25bf
00000040: dc37 2b3f b218 eb3e f9bf 06bf d039 77bf
00000050: 644e 823f 7770 b4be 2b75 54be ccbd 213f
00000060: c521 da3d 2766 a4bf 1f1f 30bf 3b06 5bbf
00000070: df3f 5ebe 3764 0c3f ea7e 6d3e a01a 03c0
00000080: 1001 183f aeb4 9fbf 39df 82bd a40e 9d3e
00000090: 0b3d 433f 8e56 66bf 11fe 2cbe 2807 fcbe
000000a0: 4b0f 26bf 20da a73d 5ad5 aa3f 4ce6 4a3e
000000b0: d08b 6cbf 870c 3ebf 1ed8 bcbf e81c cbbc
000000c0: 2cd6 5fbf 6e49 22be cc6a 97be e53c 87be
000000d0: e5c0 ebbd 516c 44bf 8ff7 c1bd ec0a 183f
000000e0: 8fc0 cfbe f7e5 123f bbe4 5f3f 0ccd bebf
-0.007922203 0.10310909 -0.49567705 0.22446199 -1.0408524 0.4479585 0.44002968 0.70524377
-0.5913357 0.55963147 0.78744847 0.28007257 -0.91402155 0.14067762 0.67831635 -0.6465718
0.6688211 0.4591728 -0.5263668 -0.9657259 1.0180173 -0.35242054 -0.20747821 0.6318023
0.10650972 -1.2843674 -0.6879749 -0.8555638 -0.21704052 0.54840416 0.23192945 -2.0485
0.5937662 -1.2477014 -0.063902326 0.30675232 0.7626502 -0.8997582 -0.16893794 -0.4922421
-0.64867085 0.08195901 1.334636 0.19814414 -0.92400837 -0.74237865 -1.4753454 -0.024794057
-0.87436175 -0.15848324 -0.29573667 -0.26413646 -0.11511401 -0.7672778 -0.09471046 0.59391665
-0.40576598 0.5738215 0.8745839 -1.4906325

arith.constant1 f4 [10, 20]
00000000: 67df 21be e585 363e 1ba9 263f 902e 95bf
00000010: 72e4 583d 2435 33bf 4aae b43f 07bb 823f
00000020: 66fb 6c3f 9a1b 19bf e7c8 da3e 0082 5fbf
00000030: 5cc9 d3be a5d6 ef3e 41e5 023f 971e 233d
00000040: 77dd 153f fd46 e63d 1dfc 333e 9a5e 8d3f
00000050: 0888 e93e 95a7 893f 5b68 b53e 6f80 193e
00000060: fb13 f33d c937 233e 6962 90be 12a1 c93e
00000070: 51c6 0f3f e803 863d 0c6b 3c3f 991f 023c
00000080: 928d 193f 35a6 43be 9734 933d 4623 493f
00000090: 045d 663f 54aa 143f 2c0b 143f 2046 663f
000000a0: c1c1 83bf 60c7 253f 314a 0ebe 0ee2 703f
000000b0: 34db 88bf a94d 593e bee5 0ebe 98f8 84bf
000000c0: 16ac 95bf 9bd5 f93d a728 85bf b675 193f
000000d0: 7a89 a4bf a2a7 3a3e 3243 303e 2313 823e
000000e0: 1d38 49bf f420 d83e ce6f 58bf 30f0 10be
000000f0: 6976 1d3f 2f0a f33f 8c83 ab3e 66ab 85bc
00000100: ac79 573e 15a3 95bd 1604 003f 6722 153e
00000110: 3705 913f 6311 51bd 82e9 1f3f 313a f13d
00000120: 2486 72bd bb3a f63e 011c 91be ba29 a03f
00000130: 7777 5c3b c93f c73e 6fce 093f eac3 2fbe
00000140: 963b d03c a697 71be 8b30 7cbd d35d c8bd
00000150: c0b4 753c f5f9 5ebc af03 96bf 5d86 673f
00000160: 241d 213f 07cd 17be 7b47 a0bd c12d 57be
00000170: effd 6cbd 045f 583e 0b3f ba3f 074a 393e
00000180: 2834 15bd 31dd 1fbd ece7 073e 151b 7e3f
00000190: 2a08 863f 1a21 ab3d cde6 10bf 3404 ea3e
000001a0: 4df2 e2be 9228 af3e 9729 23be c785 14bf
000001b0: ebf4 c33e d566 a63e 8a9e 8d3c cade 263f
000001c0: 4c5d e33e e131 3b3e 8e8e 2bbe 0440 ae3d
000001d0: 5355 3d3f 99a7 103e 4e90 1fbe 1e71 19bf
000001e0: ff1e 0c3f 321e 3e3d 1a12 083f 7678 453f
000001f0: 42ad 0f3f 170e 873f f636 ce3e 5c74 a63e
00000200: c701 aa3d 3a4b 8f3f 724b 363f c264 833f
00000210: 0ecc 703f 4804 3c3f b4a7 eb3e d4d3 73bd
00000220: 549f 2d3d 017a b7bd 1227 913e 5a56 1c3f
00000230: 041a 163f 79e1 773e d053 373f 6b09 013f
00000240: 3c0e 943c 2a1a 343e e5db 703e ca09 dc3e
00000250: c35b 963e 3a3a 803e 0790 8fbe 64b1 093f
00000260: 1fbc aa3e 88e8 96bd b15d 61be 2f21 f73d
00000270: c6a3 7c3f 9537 4e3f a654 983e 3787 b13e
00000280: 7478 00bf df3c e3be cc19 c5be 1ffb ae3e
00000290: fa9d 1bbe a957 4a3f 61e8 08bf 38e7 8fbe
000002a0: 4f4f 103d a7e6 2b3f 8736 ad3e 3db0 7fbe
000002b0: ebc8 aabe 4cb1 6bbe 92c6 aabe 4748 83bf
000002c0: 6c49 143f 04d9 933e c12f 803e 3f1c c3bd
000002d0: 8628 5b3e 2c3e 383f e04d 3c3f 6635 aa3d
000002e0: 7212 2f3f 36f0 593e 0f51 2dbe 624d 04bf
000002f0: 31ee 7d3e 5050 22bd b4e2 323e 2109 32bf
00000300: e356 df3e 67bf 443e 234e 96be abb2 c83e
00000310: 1d71 b0bd 38af 4bbe 9f69 c13e c541 3dbf
-0.15807877 0.17824514 0.65101784 -1.1654835 0.052952237 -0.7000296 1.4115689 1.0213326
0.92571104 -0.5980774 0.427314 -0.8730774 -0.41364563 0.46843448 0.51131064 0.039824095
0.58541054 0.11244009 0.17576642 1.1044495 0.45611596 1.0754267 0.3543118 0.149904
0.11869045 0.15939249 -0.2820008 0.393807 0.5616198 0.06543714 0.7360084 0.007942104
0.59981644 -0.19106372 0.07187765 0.7856945 0.8998568 0.580724 0.57829547 0.8995075
-1.0293504 0.6475735 -0.1389549 0.9409493 -1.0691895 0.21221031 -0.13954827 -1.0388365
-1.1693141 0.12198945 -1.0403031 0.5994524 -1.2854455 0.1822801 0.17213133 0.25405225
-0.7860125 0.4221264 -0.845456 -0.14154124 0.61508805 1.8987483 0.334988 -0.01631708
0.21042508 -0.07306496 0.50006235 0.14563905 1.1329716 -0.051041972 0.6246568 0.11778677
-0.059209958 0.48091683 -0.28341678 1.2512734 0.0033640543 0.38915852 0.5383062 -0.17164579
0.025419038 -0.23593006 -0.06156973 -0.097835205 0.014996707 -0.013609399 -1.1719874 0.904394
0.6293509 -0.14824305 -0.07826134 -0.21013547 -0.057859357 0.21129996 1.4550489 0.18094645
-0.036426693 -0.039029304 0.13272065 0.99260074 1.0471241 0.08355923 -0.56602174 0.45706332
-0.44325486 0.3421064 -0.15933834 -0.5801663 0.38272795 0.3250033 0.017287511 0.651837
0.44407117 0.18280746 -0.16753599 0.08508304 0.7395832 0.14126433 -0.15582392 -0.5993823
0.54734796 0.046415515 0.5315262 0.77136934 0.56123745 1.0551175 0.40276307 0.3251065
0.0830112 1.1194832 0.7120887 1.0265124 0.9406136 0.7344403 0.46026385 -0.059528187
0.042388275 -0.08958817 0.2835012 0.6106926 0.58633447 0.24207105 0.7161226 0.50404996
0.018073194 0.17588106 0.23521383 0.42976218 0.29366884 0.25044423 -0.28039572 0.537863
0.3334665 -0.073685706 -0.22008397 0.12066876 0.986874 0.8055356 0.29752082 0.34673473
-0.50183797 -0.44382378 -0.38496244 0.34175965 -0.15196982 0.7904001 -0.5347958 -0.28106093
0.035231885 0.6714882 0.33830664 -0.24969573 -0.33356413 -0.23016852 -0.33354622 -1.0256432
0.5792453 0.28876507 0.25036433 -0.09526872 0.21402177 0.71969867 0.7355633 0.08310966
0.6838752 0.2128304 -0.16925453 -0.51680577 0.24797894 -0.039627373 0.17469293 -0.6954518
0.43620977 0.19213639 -0.2935649 0.39198813 -0.08615325 -0.1989106 0.37775895 -0.7392848

arith.constant2 f4 [6]
00000000: ba22 28bf bbf5 f1bc a5cd f63e c013 783e
00000010: fba4 5b3e aa61 dbbb
-0.6567799 -0.029536119 0.4820377 0.24226284 0.21449654 -0.006694992

arith.constant3 f4 [10]
00000000: a72f 1a3f b021 833e 2d9d 5c3f 130c ce3e
00000010: f173 e43d b735 3a3e 39cd b4be c5ff a6be
00000020: 6536 ea3e b1dc 383f
0.6022896 0.2561164 0.8617733 0.40243587 0.111549266 0.18184553 -0.35312822 -0.32617012
0.45744625 0.7221175

sequential_1_1/dense_3_1/BiasAdd/ReadVariableOp f4 [20]
00000000: 2706 eabe f0f7 22be 528d 1a3d c5bc edbe
00000010: b6c3 bc3d fd09 d4be 0f2d 33bf 36f4 24bf
00000020: 67fd 17bf f4ed 13bf 393f d0be afa8 2cbf
00000030: d696 babe bfc0 7abf 3edb 6ebf 45c6 103e
00000040: 7638 7bbf 849d 0dbf 876d 28be 5cf3 46bf
-0.4570782 -0.15914893 0.03773243 -0.46433082 0.092170164 -0.4141387 -0.6999063 -0.64435136
-0.59371036 -0.5778496 -0.40673235 -0.6744489 -0.36443204 -0.9795036 -0.9330329 0.14138134
-0.9813303 -0.55318475 -0.16448031 -0.77715087

sequential_1_1/dense_3_1/MatMul f4 [20, 42]
00000000: 507d 473e 1ff1 20be 0984 ac3e e8d9 d13e
00000010: 6f46 843e ae52 1ebe 1ab7 803e e8e9 83be
00000020: 08ec 8f3e 4273 fcbe da71 d7bd f95c ef3d
00000030: 6a9c 05bd 5f49 bc3d a64c 123d 0798 e83b
00000040: e48f 233d fffd d4bb ec07 4dbe aaf3 c73c
00000050: ceb7 283d c022 13be 9bbb 13be 5aff 8bbd
00000060: dc14 edbe 5242 993e e0da 1b3d bf8b b0bd
00000070: 9d63 c93c fb8a 69be 0e49 3cbe eeca 893e
00000080: d4c9 28bf 5e6b 5b3f d247 893e 8281 65be
00000090: 6f94 c03d dfdc acbd 0059 d7bd 5e14 793e
000000a0: 5a48 13bf 468c 5d3f 3780 6fbe 34ff 8a3e
000000b0: 0b50 f93d 8d54 4c3f 1927 463d 4652 c13e
000000c0: 6840 dd3c ebfd 823e 36c7 4c3d a92e 6a3e
000000d0: 5228 083d 4c17 a33d 61bc 79bc c157 aa3d
000000e0: a268 21bd 91cf 1e3d aeea c0bd 7119 ccbf
000000f0: 34ce 953c a407 a33d d0bc 6abb e7f2 b43d
00000100: d685 23bd d77e 713d bd9e afbb 38c7 383d
00000110: cd98 433d e3fb bd3d e679 c5bc 3138 aa3d
00000120: 1010 c4bc 76b5 3a3d e668 543d e369 0b3d
00000130: 3bc6 153e 00e9 fa3d 2d53 e4bc 4f5c d03d
00000140: 3f54 f5bd 6812 9a3d debf 12bd 90c2 4e3d
00000150: 8035 613c 4028 eabb 09c0 5f3f 825e f13e
00000160: d586 233f 8602 e73d c934 2d3f e107 2ebe
00000170: 3542 3f3f fb8c 6ebe d5aa a4be 6fcb 713d
00000180: 13b8 86bc d2fb 5fbd e49d 1c3d dcc2 d9bd
00000190: d5f0 2dbd 0a0b a2bd 6c91 1ebe d98b 10bd
000001a0: ae6c 61be 8832 dc3c ddb2 b9be ee76 623e
000001b0: b6fa cabe 3980 903e ae84 f1bd 9fa0 26be
000001c0: 31c1 85be ed3e 063e fa3b 1fbf c0ba 5d3e
000001d0: cbae 62bf 4582 803e b6a4 993e 7e1d 22be
000001e0: e9ee f2bd da9c 2f3e 6ec0 0cbf e2f4 6f3e
000001f0: 0dd4 88bf b583 7d3e b0be 4a3e c301 9cbe
00000200: 28e8 663e ea15 f43e 5d0b af3c 855f b83e
00000210: f6a0 083d 7bb4 703e 3799 44bd 2cc0 7d3e
00000220: 8137 1f3e 4069 463d 0c92 17bd d497 7e3d
00000230: ac89 a4bd 9e0e 8b3d 8fbf 29bd 679e 943c
00000240: a777 143e d345 183d 9bc7 90bd c342 8e3d
00000250: 91be 63be 5d16 90bd d308 803d a942 8cbf
00000260: a875 353e d256 853d 7a23 19bd f5e8 b73d
00000270: a046 50bd f244 42be 1408 7c3d 3655 ebbe
00000280: 8fa9 1a3e 4538 073e 799f 5fbd 2aa8 e33d
00000290: fd6e cebd 0baa f6bd 616b 8c3d 9cf9 8ebe
000002a0: 9145 8abe 5a9a 2c3e 3a6f 1cbf 746a ab3c
000002b0: 48c8 0ebf a279 41be 4a62 22bf 4a60 d2bd
000002c0: 0e80 52bf 2830 ff37 7613 8abd 176c c9bd
000002d0: de78 c6bc 5ba4 7c3c 67fa 993e d5fc 67bd
000002e0: 0089 143f 1ab2 b03d a97f 30be 17b9 84bd
000002f0: 35a8 48be 61bf 073d f984 b13e 9aea 193e
00000300: 31bf 013f 5515 363e ea09 45be 3f7c c2bd
00000310: 5575 1ebe 4da7 9d3d 64da ae3e 8139 133e
00000320: b977 2f3f d336 273e 0f2c abbd 5812 5dbd
00000330: 734b b5bd 451d 023e e977 533e 50ca 543e
00000340: e8b8 d43e 1f01 603e 8cf2 76be c805 48bd
00000350: 8fcd 2a3d 8185 b53e 5551 d5bd ae7c 5c3e
00000360: 0c5e b3be bf10 5d3e 5b8f e9be bbd8 723e
00000370: 47d3 503e 768f 3d3e db6c 423d 622c e63d
00000380: 1557 e5bc d269 bb3d e537 8cbc 8cde e43b
00000390: e5f6 383e 018f 1f3e a626 1a3d 525e e13d
000003a0: 7ee1 dd3c d600 c8bd 3746 6f3e 49b4 9cbd
000003b0: cae3 493d 42ea 173e e9b9 88bd 7634 bf3c
000003c0: 775a 7f3e 41e7 02bf e9ed 033f 70c5 2fbf
000003d0: 6d62 98bd 53e5 583e 6beb dbbd b4b3 2c3d
000003e0: 0ed0 423d 12b0 c4be dc19 693e 8e0c 4abf
000003f0: 9fe2 8bbe 94ac c63d 2ac4 c1be 0127 8fbd
0.19481397 -0.1571698 0.33694485 0.40986562 0.25834987 -0.15461227 0.25139695 -0.25764394
0.28109765 -0.49306685 -0.10519762 0.11687655 -0.03261987 0.09193682 0.03571763 0.007098201
0.039932147 -0.0065000053 -0.20022553 0.02440818 0.041190915 -0.14368725 -0.14427035 -0.06835814
-0.46304977 0.2993341 0.038050532 -0.086204045 0.024583632 -0.22806923 -0.18387243 0.26912636
-0.65932965 0.85710704 0.26812607 -0.22412685 0.094033115 -0.08440565 -0.10515022 0.24324176
-0.57532275 0.86542165 -0.23388754 0.2714783 0.1217347 0.79816514 0.04837713 0.37758082
0.02700825 0.2558435 0.04999467 0.22869362 0.033241577 0.07963428 -0.015242667 0.08317519
-0.039406426 0.03877217 -0.094197616 -1.5945264 0.018286802 0.07960442 -0.0035818107 0.088353924
-0.039922558 0.058958855 -0.0053594992 0.045111865 0.047753144 0.09276559 -0.024105977 0.08311499
-0.02393344 0.04558321 0.05185785 0.03403653 0.146264 0.122514725 -0.027871693 0.101738565
-0.11978959 0.07523042 -0.03582751 0.050478518 0.013745666 -0.0071459115 0.874024 0.47142416
0.6387761 0.11279778 0.6765867 -0.16995193 0.747104 -0.23295967 -0.32161584 0.0590319
-0.016445195 -0.054683514 0.038236514 -0.106328696 -0.042466003 -0.07912262 -0.15485162 -0.03528962
-0.22014114 0.026879564 -0.36269274 0.2211568 -0.39644402 0.28222826 -0.11792885 -0.1627221
-0.26123956 0.13109942 -0.6220089 0.2165327 -0.8854796 0.25099388 0.30008477 -0.15831563
-0.11861975 0.17149678 -0.54981124 0.23433259 -1.0689713 0.24757273 0.19799304 -0.30470094
0.22549498 0.4767297 0.021367723 0.36010376 0.03335663 0.23506348 -0.04799768 0.24780339
0.15548517 0.048440218 -0.037004516 0.062156513 -0.08034071 0.067898974 -0.04144245 0.018141938
0.14498769 0.037175965 -0.07069322 0.069463275 -0.22240664 -0.070355155 0.06251683 -1.0957843
0.17720664 0.065107 -0.03738735 0.0897998 -0.050848603 -0.18971613 0.06153114 -0.45963448
0.15103744 0.13205059 -0.054595444 0.11116059 -0.10079763 -0.12044152 0.068564184 -0.27924812
-0.270062 0.16855755 -0.6110722 0.020924784 -0.55774355 -0.18894055 -0.6343123 -0.10272272
-0.82226646 3.0420793e-05 -0.06741993 -0.098350696 -0.024227556 0.015420045 0.30073854 -0.056637604
0.58021545 0.0862772 -0.17236198 -0.064806156 -0.19595416 0.033141498 0.34671763 0.150309
0.5068236 0.17781575 -0.19242063 -0.09496354 -0.15474446 0.07697926 0.34150994 0.14377405
0.6854206 0.16329508 -0.08358013 -0.053972572 -0.088522814 0.12706478 0.20651211 0.20780301
0.41547322 0.21875428 -0.24115962 -0.04883364 0.041699942 0.35453418 -0.104159035 0.21531937
-0.3503269 0.2158842 -0.45617184 0.23715489 0.20393096 0.18511757 0.047467094 0.11238934
-0.027995626 0.09151043 -0.017116496 0.0069845375 0.18062933 0.15581895 0.037634514 0.11004318
0.027085062 -0.097657844 0.23366629 -0.07651574 0.049289502 0.14835456 -0.066760845 0.023340445
0.24936853 -0.51134115 0.515349 -0.6866064 -0.07440648 0.2118123 -0.10738262 0.042163566
0.047561698 -0.3841558 0.22763771 -0.78925407 -0.27321336 0.097008854 -0.37844974 -0.06989861
